debug_model.pth (torch, 2224 bytes, 4 tensors)

fc1.weight f4 [4, 8]
0.05197878 0.054890454 -0.41808033 0.18334663 -0.037252493 -0.07111806 -0.20056555 -0.053697385
0.12152542 -0.3151341 0.14013475 -0.09041563 0.057225034 -0.09007308 -0.08324425 0.44974583
0.04670269 0.07593067 -0.44143265 -0.28914347 -0.13520215 0.0029746336 -0.15219286 -0.029092424
-0.13700673 -0.061176427 -0.049851462 0.2560728 -0.2514127 -0.36134195 -0.16348395 0.00976976
00000000: b4e7 543d d0d4 603d a00e d6be 38bf 3b3e
00000010: 1296 18bd 58a6 91bd 0e61 4dbe caf1 5bbd
00000020: 52e2 f83d 4259 a1be 7c7f 0f3e d42b b9bd
00000030: cc64 6a3d 3c78 b8bd f67b aabd 1645 e63e
00000040: 524b 3f3d 8a81 9b3d 7603 e2be 9d0a 94be
00000050: 6f72 0abe 12f2 423b 72d8 1bbe 3c53 eebc
00000060: 7e4b 0cbe 2294 7abd 0c31 4cbd f91b 833e
00000070: 2ab9 80be d001 b9be 5668 27be 5811 203c

fc1.bias f4 [4]
-0.0030144718 -0.16503248 -0.16625725 0.22473651
00000000: 728e 45bb 46fe 28be 573f 2abe 5421 663e

fc2.weight f4 [3, 4]
-0.15869981 0.3036028 0.27124766 -0.39209306 0.4296132 0.3589817 0.25145587 0.41820288
-0.57487154 0.09470258 0.20054512 0.30059764
00000000: 3482 22be d471 9b3e f9e0 8a3e 6cc0 c8be
00000010: 43f6 db3e 73cc b73e d3be 803e b01e d63e
00000020: c82a 13bf 6df3 c13d b35b 4d3e efe7 993e

fc2.bias f4 [3]
-0.02317052 -0.15703945 -0.6046758
00000000: 1ad0 bdbc f3ce 20be 09cc 1abf
